…
=runs\detect\train
Downloading https://ultralytics.com/assets/Arial.ttf to 'C:\Users\admin\AppData\Roaming\Ultralytics\Arial.ttf'...
100%|â–ˆâ–ˆâ–ˆâ–ˆâ–ˆâ–ˆâ–ˆâ–ˆâ–ˆâ–ˆâ–ˆâ–ˆâ–ˆâ–ˆâ–ˆâ–ˆâ–ˆâ–ˆâ–ˆâ–ˆâ–ˆâ–ˆâ–ˆâ–ˆâ–ˆâ–ˆâ–ˆâ–ˆâ–ˆâ–ˆâ–ˆâ–ˆâ–ˆâ–ˆâ–ˆâ–ˆâ–ˆâ–ˆâ–ˆâ–ˆâ–ˆâ–ˆâ–ˆâ–ˆâ–ˆâ–ˆâ–ˆâ–ˆâ–ˆâ–ˆâ–ˆâ–ˆâ–ˆâ–ˆâ–ˆâ–ˆâ–ˆâ–ˆâ–ˆâ–ˆâ–ˆâ–ˆâ–ˆâ–ˆâ–ˆâ–ˆâ–ˆâ–ˆâ–ˆâ–ˆâ–ˆâ–ˆâ–ˆâ–ˆâ–ˆâ–ˆâ–ˆâ–ˆâ–ˆ| 755k/755k [00:00<00:00, 4.87MB/s]
Overriding model.yaml nc=80 with nc=11

                   from  n    params  module                                       arguments
  0                  -1  1       464  ultralytics.nn.modules.conv.Conv             [3, 16, 3, 2]
  1                  -1  1      4672  ultralytics.nn.modules.conv.Conv             [16, 32, 3, 2]
  2                  -1  1      6640  ultralytics.nn.modules.block.C3k2            [32, 64, 1, False, 0.25]
  3                  -1  1     36992  ultralytics.nn.modules.conv.Conv             [64, 64, 3, 2]
  4                  -1  1     26080  ultralytics.nn.modules.block.C3k2            [64, 128, 1, False, 0.25]
  5                  -1  1    147712  ultralytics.nn.modules.conv.Conv             [128, 128, 3, 2]
  6                  -1  2    180864  ultralytics.nn.modules.block.A2C2f           [128, 128, 2, True, 4]
  7                  -1  1    295424  ultralytics.nn.modules.conv.Conv             [128, 256, 3, 2]
  8                  -1  2    689408  ultralytics.nn.modules.block.A2C2f           [256, 256, 2, True, 1]
  9                  -1  1         0  torch.nn.modules.upsampling.Upsample         [None, 2, 'nearest']
 10             [-1, 6]  1         0  ultralytics.nn.modules.conv.Concat           [1]
 11                  -1  1     86912  ultralytics.nn.modules.block.A2C2f           [384, 128, 1, False, -1]
 12                  -1  1         0  torch.nn.modules.upsampling.Upsample         [None, 2, 'nearest']
 13             [-1, 4]  1         0  ultralytics.nn.modules.conv.Concat           [1]
 14                  -1  1     24000  ultralytics.nn.modules.block.A2C2f           [256, 64, 1, False, -1]
 15                  -1  1     36992  ultralytics.nn.modules.conv.Conv             [64, 64, 3, 2]
 16            [-1, 11]  1         0  ultralytics.nn.modules.conv.Concat           [1]
 17                  -1  1     74624  ultralytics.nn.modules.block.A2C2f           [192, 128, 1, False, -1]
 18                  -1  1    147712  ultralytics.nn.modules.conv.Conv             [128, 128, 3, 2]
 19             [-1, 8]  1         0  ultralytics.nn.modules.conv.Concat           [1]
 20                  -1  1    378880  ultralytics.nn.modules.block.C3k2            [384, 256, 1, True]
 21        [14, 17, 20]  1    432817  ultralytics.nn.modules.head.Detect           [11, [64, 128, 256]]
YOLOv12n summary: 272 layers, 2,570,193 parameters, 2,570,177 gradients, 6.5 GFLOPs

Transferred 640/691 items from pretrained weights
Freezing layer 'model.21.dfl.conv.weight'
AMP: running Automatic Mixed Precision (AMP) checks...
Downloading https://github.com/ultralytics/assets/releases/download/v8.3.0/yolo11n.pt to 'yolo11n.pt'...
100%|â–ˆâ–ˆâ–ˆâ–ˆâ–ˆâ–ˆâ–ˆâ–ˆâ–ˆâ–ˆâ–ˆâ–ˆâ–ˆâ–ˆâ–ˆâ–ˆâ–ˆâ–ˆâ–ˆâ–ˆâ–ˆâ–ˆâ–ˆâ–ˆâ–ˆâ–ˆâ–ˆâ–ˆâ–ˆâ–ˆâ–ˆâ–ˆâ–ˆâ–ˆâ–ˆâ–ˆâ–ˆâ–ˆâ–ˆâ–ˆâ–ˆâ–ˆâ–ˆâ–ˆâ–ˆâ–ˆâ–ˆâ–ˆâ–ˆâ–ˆâ–ˆâ–ˆâ–ˆâ–ˆâ–ˆâ–ˆâ–ˆâ–ˆâ–ˆâ–ˆâ–ˆâ–ˆâ–ˆâ–ˆâ–ˆâ–ˆâ–ˆâ–ˆâ–ˆâ–ˆâ–ˆâ–ˆâ–ˆâ–ˆâ–ˆâ–ˆâ–ˆ| 5.35M/5.35M [00:00<00:00, 22.3MB/s]
…
